
Training model now ____------_____------_______----


******************************************************

Model: "sequential"
_________________________________________________________________
 Layer (type)                Output Shape              Param #   
=================================================================
 convol2D (Conv2D)           (None, 3, 30, 120)        1200      
                                                                 
 maxpool (MaxPooling2D)      (None, 1, 10, 120)        0         
                                                                 
 flatten (Flatten)           (None, 1200)              0         
                                                                 
 dropout (Dropout)           (None, 1200)              0         
                                                                 
 hidden_layer (Dense)        (None, 64)                76864     
                                                                 
 dropout_1 (Dropout)         (None, 64)                0         
                                                                 
 Dense-output (Dense)        (None, 2)                 130       
                                                                 
=================================================================
Total params: 78,194
Trainable params: 78,194
Non-trainable params: 0
_________________________________________________________________
Epoch 1/50
   1/2540 [..............................] - ETA: 35:18 - loss: 0.6951 - accuracy: 0.3125 - auc: 0.4039
…
